dqn_model.pth (torch, 19164 bytes, 6 tensors)

fc.0.weight f4 [64, 30]
0	0x3e747462	0.23872522
1	0x3f67ef14	0.9059918
2	0x3de5d770	0.11222732
3	0xbe692fa0	-0.22772074
4	0xbe0469cc	-0.12930983
5	0x3e080fd2	0.13287285
6	0x3e08c906	0.13357934
7	0xbdb9bf9a	-0.09069748
8	0x3f1207c6	0.5704311
9	0xbd83d53a	-0.06437154
10	0xbdd4dc09	-0.10393531
11	0xbe8f9e6b	-0.2805055
12	0x3db300a9	0.0874036
13	0x3d9304c8	0.07178646
14	0xbebcb017	-0.36853096
15	0xbed62ba7	-0.4183018
16	0x3d15beef	0.03655904
17	0xbe2e73af	-0.17036317
18	0x3ebdb7a3	0.37054166
19	0xbe58cbf8	-0.21171558
20	0xbe3258bb	-0.1741666
21	0xbf2cc09c	-0.674814
22	0xbe4c60ea	-0.19958845
23	0xbbacf45b	-0.005278153
24	0x3d909287	0.07059198
25	0xbf1589ce	-0.584134
26	0xbe458dc0	-0.19292355
27	0xbc8fd07c	-0.017555468
28	0xbe9661ad	-0.29371396
29	0xbe8466d7	-0.2585971
30	0x3d39036c	0.04516928
31	0x3f480fe0	0.78149223
32	0xbe17935f	-0.14802311
33	0x3e807ba0	0.25094318
34	0x3df4d275	0.11954204
35	0x3d89ed6b	0.06734737
36	0xbe766a6d	-0.24064036
37	0x3e0884fa	0.13331977
38	0x3e99d004	0.30041516
39	0xbd05442f	-0.032535728
40	0x3e328f90	0.17437577
41	0xbd2f8fb4	-0.042861655
42	0xbe00f8cd	-0.1259491
43	0x3e6c5093	0.23077612
44	0x3eb356a8	0.3502705
45	0xbe0a8213	-0.13526182
46	0x3e9344e9	0.28763512
47	0x3e82420c	0.25441015
48	0x3de98aab	0.11403402
49	0x3dd82b2d	0.1055511
50	0xbddd6698	-0.10810584
51	0x3eb10cfb	0.34580216
52	0x3e8974f2	0.26847035
53	0x3cc13d27	0.02358873
54	0xbe06e0a2	-0.13171628
55	0x3df048ba	0.117326215
56	0x3de514e4	0.11185625
57	0xbd6edba3	-0.05831493
58	0xbdd969bb	-0.106158696
59	0xbd8599d2	-0.065234795
60	0x3eecaa46	0.46223658
61	0x3f8eb859	1.1150008
62	0x3ea80322	0.3281489
63	0x3f08f97d	0.5350569
64	0xbe52d8d3	-0.20590524
65	0x3ebd9603	0.37028512
66	0xbea49364	-0.321437
67	0xbcb08596	-0.021548074
68	0x3d0e8037	0.034790244
69	0xbd888298	-0.06665534
70	0xbe080f06	-0.13286981
71	0xbe928730	-0.28618765
72	0x3d5359c0	0.051599264
73	0xbcde46fe	-0.027133461
74	0x3dc1b606	0.09458546
75	0x3d52792a	0.051385082
76	0x3cdb4d0a	0.026770134
77	0xbe477a9c	-0.19480366
78	0xbc580801	-0.013185502
79	0x3d0df529	0.03465763
80	0x3d553138	0.05204889
81	0x3d86edd7	0.06588333
82	0x3b830025	0.00399782
83	0x3e1b90ee	0.15192005
84	0x3c205799	0.00978651
85	0xbda7e65d	-0.08198235
86	0x3cd02824	0.025409766
87	0x3e21f47e	0.15815923
88	0x3dfe66a4	0.12421921
89	0x3ec4846b	0.38382277
90	0xbf80e928	-1.0071154
91	0x3f83738f	1.0269641
92	0x3e56a79e	0.20962378
93	0x3e64b270	0.22333694
94	0xbec39c6e	-0.38205284
95	0xbdedfeb7	-0.116208486
96	0xbe76df54	-0.2410863
97	0x3ec1e818	0.37872386
98	0x3f15ff0f	0.58592314
99	0x3d340ac9	0.043955598
100	0xbdda5970	-0.1066159
101	0xbe7beed0	-0.24602818
102	0x3e80d91b	0.25165638
103	0x3dd059a4	0.101733476
104	0x3dc2c078	0.09509367
105	0x3d2a3f67	0.04156437
106	0x3ecf802a	0.4052747
107	0x3e59a924	0.21255928
108	0x3d627ae8	0.055292994
109	0x3ca6fe3e	0.020384904
110	0xbdb4d0f1	-0.08828915
111	0xbe9760fe	-0.29566187
112	0xbdf7b0bd	-0.12094257
113	0xbe224f50	-0.15850568
114	0x3e0bec15	0.13664277
115	0x3cb2d6f1	0.021831008
116	0xbd0a2e0f	-0.03373533
117	0xbdab5631	-0.08366049
118	0x3e02f9c4	0.1279059
119	0xbd230174	-0.039796308
120	0xc0222902	-2.533753
121	0x3eef36cd	0.46721497
122	0xbc86c280	-0.016450167
123	0x3efedd5a	0.49778253
124	0xbe1bffc7	-0.1523429
125	0xbdc0cb30	-0.09413755
126	0xbe62137f	-0.2207775
127	0xbd2b26e1	-0.041785125
128	0x3e6bc8d0	0.23025823
129	0xbf0f988e	-0.56092155
130	0x3eae3e0f	0.34031722
131	0xbf0ecafa	-0.5577847
132	0x3fa0843f	1.2540358
133	0xbf88d177	-1.0688924
134	0xbf2e6a0e	-0.68130577
135	0x3c377a67	0.011198617
136	0x3c7db1a5	0.015484248
137	0x3ea1c47e	0.31595224
138	0xbd6ebd7d	-0.05828618
139	0x3d06a670	0.03287357
140	0x3dbe002d	0.09277377
141	0xbc1115f2	-0.00885533
142	0x3c28f2b5	0.010311772
143	0x3e83922a	0.25697452
144	0x3dba2698	0.090893924
145	0x3dd6f584	0.10496047
146	0xbc5ec5c3	-0.013596955
147	0x3adadc56	0.0016697745
148	0x3e8a8ef8	0.27062201
149	0x3ce58413	0.02801708
150	0x3f94b843	1.1618732
151	0x4050ca07	3.2623308
152	0x3e36f7f2	0.17868021
153	0x3f8b70a9	1.0893756
154	0xbe0fdff5	-0.14050277
155	0x3e5f0d6e	0.21782467
156	0xbd2cc9af	-0.042184528
157	0xbead3cb9	-0.3383539
158	0x3f7bbd25	0.98335487
159	0xbf9bcb8d	-1.2171494
160	0xbf93a952	-1.1536047
161	0xbf133cab	-0.57514447
162	0x3f15fb31	0.5858641
163	0xbdc015fc	-0.09379193
164	0x3ef7eee3	0.48424444
165	0x3ba8b96a	0.005149056
166	0x3eab3aeb	0.33443388
167	0x3ef095ef	0.4698939
168	0x3ec8a8f1	0.39191392
169	0x3d89e36f	0.06732833
170	0x3f34ad8d	0.7057732
171	0x3df516e0	0.11967254
172	0x3cbbab69	0.022908883
173	0x3ce0246c	0.027361117
174	0xbd271497	-0.04079112
175	0x3e945c12	0.28976494
176	0xbdb677a3	-0.08909538
177	0x3f4dd001	0.80395514
178	0x3ee5ed56	0.44907635
179	0x3f22754d	0.63460237
180	0x3d688570	0.05676788
181	0x3f3d1130	0.7385435
182	0x3d45b98b	0.04827265
183	0x3eb8870a	0.36040527
184	0xbe19b1e8	-0.15009272
185	0x3e2e934f	0.17048381
186	0xbeb65cef	-0.35617778
187	0x3e07bcfa	0.13255683
188	0xbdb9e79b	-0.09077378
189	0xbe9ed550	-0.3102212
190	0x3ee14894	0.44000685
191	0xbe57d2bc	-0.21076483
192	0x3ea28e9a	0.3174942
193	0xbe47b4fa	-0.19502631
194	0xbdba08c1	-0.09083701
195	0xbd341ffb	-0.04397581
196	0x3df17698	0.11790198
197	0x3e250ef6	0.16118988
198	0xbd0add05	-0.033902187
199	0xbc9ce930	-0.019154161
200	0xbd25f813	-0.040519785
201	0x3dcd90db	0.100373946
202	0xbd0c7ce2	-0.034298785
203	0x3dabae89	0.08382899
204	0xbe37c2e8	-0.17945445
205	0xba318a4c	-0.0006772622
206	0xbd9eaff4	-0.07748404
207	0x3cd9670f	0.0265384
208	0x3d856030	0.06512487
209	0x3eb4dfbd	0.3532695
210	0xbe8bf462	-0.27334887
211	0x3f3f2f74	0.7468178
212	0xbd3816c6	-0.044943593
213	0x3e60ed95	0.2196563
214	0xbee98939	-0.45612505
215	0xbd805da8	-0.062678635
216	0xbd3a3f73	-0.045470666
217	0xbd98c219	-0.07458896
218	0x3e183730	0.14864802
219	0x3ea0673d	0.31328765
220	0xbd96eb2e	-0.07369076
221	0xbc5133e3	-0.012768718
222	0x3dc5bcbe	0.0965514
223	0xbd9b1ad4	-0.075734764
224	0xbe576e51	-0.21038176
225	0xbe95b1d5	-0.29237238
226	0x3d63f21d	0.05565082
227	0x3ebd35b0	0.36955023
228	0xbda4d56a	-0.08048518
229	0x3e3ec172	0.18628481
230	0x3e47b537	0.19502722
231	0xbe20bb33	-0.15696411
232	0xbd9bd401	-0.07608796
233	0x3de5ddd4	0.11223951
234	0x3e7e2810	0.2481997
235	0xbd89d7dc	-0.06730625
236	0x3d2bfbf4	0.041988328
237	0xbe082df9	-0.13298787
238	0x3e6270d7	0.22113357
239	0x3ded91ed	0.11600099
240	0xbf1ada00	-0.6048889
241	0x3ec238ac	0.37933862
242	0x3dafea1e	0.08589576
243	0x3cee3fbb	0.029083123
244	0xbe3af1b9	-0.18256272
245	0x3da7687f	0.08174228
246	0x3de69113	0.112581395
247	0x3c96e69b	0.018420508
248	0x3dc709a0	0.09718633
249	0xbc282405	-0.010262494
250	0x3e3b0cd2	0.1826661
251	0xbe399a18	-0.18125188
252	0x3e4f46f4	0.2024191
253	0xbd97f1e9	-0.074191876
254	0xbccd799c	-0.025082402
255	0xbce8448c	-0.028352998

fc.0.bias f4 [64]
0	0xc0e7a7e5	-7.239245
1	0xc06de49a	-3.7170777
2	0xc03ab521	-2.9173052
3	0xc087f8ba	-4.249112
4	0xbedb2563	-0.4280196
5	0xc0bc40d0	-5.8829117
6	0xc03a5b81	-2.911835
7	0xc083aba8	-4.114704
8	0xc03a37ab	-2.9096477
9	0xc0602a8c	-3.5025969
10	0xc010b366	-2.2609496
11	0xc0182658	-2.3773403
12	0xc07cb067	-3.9482667
13	0xc08614c7	-4.1900363
14	0xc0775872	-3.8647733
15	0x40c89975	6.2687325
16	0xc0570227	-3.3595064
17	0xc03aca90	-2.9186134
18	0xc05451b1	-3.317486
19	0xc0328c31	-2.7898066
20	0xc0239b22	-2.5563436
21	0xc08e3590	-4.4440384
22	0xc031c450	-2.777607
23	0xc04c53f8	-3.192625
24	0xc0ac2aa9	-5.3802075
25	0xc01c1501	-2.438782
26	0xc072b724	-3.792428
27	0xc084395a	-4.132001
28	0xc04a0974	-3.156827
29	0xc10b5a08	-8.70948
30	0xc06bd214	-3.6846972
31	0xc038cf61	-2.8876574
32	0xc029a269	-2.6505377
33	0xc0207a9b	-2.5074832
34	0xbfec776b	-1.8473943
35	0xbfea5cfd	-1.8309628
36	0xc0fb7f4e	-7.85929
37	0xc08312b0	-4.096031
38	0xc02c4db0	-2.6922417
39	0xc06697c3	-3.6030128
40	0xc0efee59	-7.497845
41	0xc0188fb4	-2.383771
42	0xc009de9d	-2.1542122
43	0xc053a134	-3.306714
44	0xc02c692a	-2.6939187
45	0xc0733855	-3.8003132
46	0xc090c2f4	-4.523798
47	0xc04db5a1	-3.2142107
48	0xc0793087	-3.8935869
49	0xc04cfa03	-3.2027595
50	0xc02dce21	-2.715706
51	0xc0d5a321	-6.676163
52	0xc03b2717	-2.9242609
53	0x40eb9c11	7.362801
54	0xc05a9760	-3.4154892
55	0xc05bb3c8	-3.432848
56	0xc04a5f64	-3.1620722
57	0xc0705194	-3.7549791
58	0xc03585ff	-2.8363035
59	0xc068d18f	-3.6377904
60	0xc049795d	-3.1480324
61	0xc03ed2d7	-2.9816186
62	0xc01011e5	-2.2510922
63	0xc0a93c5d	-5.2886186

fc.2.weight f4 [32, 64]
0	0xbf7f06dd	-0.9961985
1	0xbfef13aa	-1.8677876
2	0xbdd781a3	-0.10522773
3	0x3f15a49c	0.584543
4	0xbf1aafe0	-0.60424614
5	0xbf48c670	-0.7842779
6	0x3e6113b5	0.21980174
7	0x3f609faa	0.8774363
8	0xbe7f4122	-0.2492719
9	0xbfa0a957	-1.2551678
10	0xbd7f2c92	-0.062298365
11	0xbe8e2f3a	-0.27770406
12	0xbf9d5030	-1.2290096
13	0x3f244d4b	0.6418044
14	0xbe718a01	-0.235878
15	0xbe951e35	-0.2912461
16	0xbf43e945	-0.76527816
17	0xbf38fe23	-0.7226278
18	0xbf1e4447	-0.6182293
19	0xbedcd042	-0.43127638
20	0xbecbfe0b	-0.39842257
21	0xc01128ad	-2.2681077
22	0xbdf1fc2d	-0.11815677
23	0xbedbba9a	-0.42915803
24	0xbfe7092f	-1.8049678
25	0x3c6c0e49	0.014407703
26	0x3f0e45a5	0.5557502
27	0x3f7cc382	0.9873582
28	0xbf658f4c	-0.8967178
29	0x3ea6259d	0.32450572
30	0xbe068176	-0.13135323
31	0x3ca2d5bc	0.019877307
32	0xbe409a7f	-0.18808936
33	0xbded7c48	-0.115959704
34	0xbddd5712	-0.10807623
35	0xbcae4a7e	-0.021275755
36	0x3d953749	0.072859354
37	0xbf86a2b8	-1.0518408
38	0xbf5c47b0	-0.86046886
39	0xbded4d5c	-0.11587021
40	0xc0ada62b	-5.426534
41	0x3f002be3	0.50066966
42	0xbf2e829c	-0.68168044
43	0xbebdbc36	-0.37057656
44	0xbeb826ee	-0.359672
45	0x3bea95ae	0.0071589565
46	0xbfea3ef1	-1.8300458
47	0xbe2fda18	-0.1717304
48	0xc02fe4b3	-2.7483337
49	0xbe90bd0e	-0.28269237
50	0xbf387279	-0.7204967
51	0x3dc37e94	0.09545627
52	0xc006b5a9	-2.1048377
53	0xbe141313	-0.14460401
54	0xc042423d	-3.0352929
55	0x3e5303e8	0.20606959
56	0xbf5201ee	-0.82034194
57	0xc02f08b9	-2.7349074
58	0xbef80c3e	-0.4844684
59	0xbf0274ce	-0.5095948
60	0x3f8dfb81	1.1092378
61	0xbe8a5245	-0.27015892
62	0x3d2bdb6f	0.041957315
63	0xbfa5e96d	-1.2961861
64	0xc0022395	-2.0334218
65	0xbdefa837	-0.11702006
66	0x3d2a5e6c	0.041593954
67	0x3f9e61d2	1.2373602
68	0xc01db872	-2.4643826
69	0x3eacf973	0.33784065
70	0x3d151ac2	0.03640247
71	0xbee060a0	-0.4382372
72	0x3eb29aa4	0.34883606
73	0x3eb58c9f	0.35458848
74	0xbe8958bf	-0.2682552
75	0xbd152523	-0.03641237
76	0x3d9cb6a7	0.07652026
77	0x3e57ae13	0.21062498
78	0xbd61423b	-0.054994803
79	0xbfea36d1	-1.8297979
80	0x3c6a2ea9	0.014293351
81	0x3e5b6d45	0.21428402
82	0xbdd35b82	-0.10320188
83	0xbe29faec	-0.16599625
84	0x3da14c17	0.07875841
85	0x3e613241	0.21991827
86	0x3d9ecbbe	0.077537045
87	0xbd50f8f7	-0.05101868
88	0x3fabf2e1	1.3433496
89	0x3e71464b	0.23561971
90	0xbf60e552	-0.87849915
91	0x3e84acaf	0.25912997
92	0xbcb1210b	-0.021622201
93	0xbe5c0625	-0.21486719
94	0xbde0936f	-0.10965621
95	0x3d91e772	0.07124223
96	0x3ea573de	0.32314962
97	0x3e2b146e	0.16707012
98	0xbd421cf3	-0.04739089
99	0xbe295aa9	-0.1653849
100	0xbd61fd56	-0.05517324
101	0xbe35ff96	-0.1777328
102	0xbbedd59b	-0.00725813
103	0x3dd772ba	0.10519929
104	0x3eef4c31	0.46737817
105	0xbdbf3f6d	-0.093382694
106	0x3da11275	0.078648485
107	0xbe835f66	-0.2565872
108	0x3e005bb2	0.12534979
109	0xbd0d36ec	-0.034476206
110	0x3d562d20	0.05228913
111	0x3dc5f394	0.096655995
112	0xbe2cea60	-0.16886282
113	0xbe9cf1a4	-0.30653107
114	0xbd16a1af	-0.036775287
115	0x3da93415	0.08261887
116	0x3b7223dc	0.0036947643
117	0xbf36836b	-0.7129428
118	0xbc3173b5	-0.010830809
119	0xbe00eb63	-0.12589793
120	0xbf1c5551	-0.6106768
121	0xbb9b75de	-0.0047442755
122	0xbd64a0d0	-0.055817425
123	0xbd7acf91	-0.061233107
124	0x3e018b54	0.12650806
125	0x3e67cf8e	0.2263777
126	0xbd826eea	-0.063688114
127	0xbe766bcb	-0.24064557
128	0xbedda67c	-0.4329108
129	0x3e00abf2	0.12565592
130	0x3d99fe6f	0.075192325
131	0x3e9b758e	0.30363125
132	0xbed01392	-0.4063993
133	0xbeb3f169	-0.3514512
134	0xbd5df450	-0.054188073
135	0xbe5633db	-0.20918219
136	0x3e11e11b	0.14246027
137	0x3ec8d515	0.3922507
138	0x3eb25fcf	0.3483872
139	0x3d713916	0.058892332
140	0xbdd92213	-0.10602202
141	0x3d9a8e31	0.07546652
142	0x3bcd7c34	0.0062709097
143	0x3f62cd88	0.88594866
144	0x3b99c5db	0.0046927757
145	0xbce93955	-0.02846972
146	0x3d93f559	0.07224531
147	0xbd453c16	-0.048153006
148	0x3e14db50	0.14536786
149	0xbd024317	-0.031802263
150	0x3c42bcce	0.011885835
151	0xbd72dc5f	-0.059292194
152	0x3feddaa5	1.858235
153	0x3d97cd1f	0.074121706
154	0xbf37f063	-0.71851176
155	0x3f07f265	0.5310424
156	0x3d8fc0fc	0.07019231
157	0x3ddcc92b	0.10780557
158	0x3e16aefa	0.14715186
159	0x3de17983	0.11009505
160	0x3eae4e10	0.34043932
161	0x3e2c20db	0.16809408
162	0x3f4f5b5b	0.8099877
163	0x3d6b3f88	0.057433635
164	0xbd103792	-0.035209246
165	0x3d6f210f	0.058381137
166	0x3e7f566e	0.24935314
167	0x3e108b83	0.1411572
168	0xbf415fe0	-0.7553692
169	0x3e2de13b	0.1698045
170	0x3dc3ed29	0.09566719
171	0xbd2ce456	-0.042209946
172	0xbd90ee6f	-0.070767276
173	0x3c741eb5	0.014899899
174	0xbd0b4903	-0.034005176
175	0xbcb7003f	-0.022338985
176	0x3da33ae6	0.07970218
177	0xbe747ac7	-0.23874961
178	0x3ddb3235	0.107029356
179	0xbeea3373	-0.45742378
180	0x3e286f9f	0.1644883
181	0x3fcd8203	1.6055301
182	0xbdb3be6f	-0.08776557
183	0x3def4f26	0.11685018
184	0xbbd9c58d	-0.0066458643
185	0xbc9cedee	-0.019156422
186	0xbd459173	-0.048234414
187	0xbe1cae34	-0.15300828
188	0xbd75a4cf	-0.059971627
189	0x3e509588	0.20369542
190	0x3d9931db	0.07480212
191	0x3d2d4e03	0.042310726
192	0x3dbc6cdd	0.092004515
193	0xbd54715b	-0.051865917
194	0xbd14ca1f	-0.03632557
195	0xbeba5e16	-0.36399907
196	0xbe9546c9	-0.29155567
197	0x3d61176c	0.054953977
198	0x3d02944d	0.031879712
199	0x3e30ec5c	0.17277664
200	0xbd58b912	-0.05291087
201	0xbda6b3d9	-0.08139772
202	0xbe3c146e	-0.18367168
203	0xbcbfb292	-0.023400579
204	0xbd6736da	-0.056448795
205	0xbe9e95b1	-0.3097358
206	0xbd5d7bf4	-0.05407329
207	0xbfb782cf	-1.4336795
208	0xbe6e0a62	-0.23246148
209	0xbde8e798	-0.11372298
210	0xbe94d4f0	-0.29068708
211	0xbcdcced3	-0.02695409
212	0x3d6b970c	0.057517096
213	0xbe28e671	-0.16494156
214	0x3d3097d9	0.043113563
215	0xbe4e8706	-0.20168695
216	0xbe7c4b00	-0.24637985
217	0xbd87ad80	-0.066248894
218	0xbde48007	-0.11157232
219	0x3d55a0ff	0.05215549
220	0xbda7ae04	-0.08187488
221	0xbc02b5e9	-0.007977941
222	0xbe2ecaea	-0.17069593
223	0x3e55c3fe	0.20875546
224	0xbe157ae6	-0.14597663
225	0xbdc7934f	-0.09744894
226	0xbe66e9fe	-0.22550198
227	0xbe448b9f	-0.19193886
228	0x3f00aef1	0.5026694
229	0xbe07b271	-0.13251664
230	0xbe8f2c76	-0.27963609
231	0xbd93ee0f	-0.072231404
232	0x3f11c1ae	0.56936157
233	0xbe5a2293	-0.21302252
234	0xbe29e4e3	-0.1659122
235	0x3bbac11b	0.0056992895
236	0xbe312037	-0.17297445
237	0xbdbf2cee	-0.093347415
238	0xbe744e3d	-0.2385797
239	0x3ddcd1ea	0.107822254
240	0x3c40bbdb	0.011763538
241	0x3eaf6660	0.34257793
242	0x3ca3b101	0.019981863
243	0x3d9d3574	0.07676211
244	0x3d166cc1	0.03672481
245	0xbfc98284	-1.5742955
246	0xbdb5f8d9	-0.088853545
247	0x3ce2dcc9	0.02769317
248	0xbd64eea2	-0.05589164
249	0xbc8febc1	-0.01756847
250	0x3b549148	0.0032435227
251	0x3e7e4d6d	0.24834223
252	0xba996d7f	-0.0011705606
253	0xbdef1126	-0.11673193
254	0xbe9257eb	-0.285827
255	0xbc5dba82	-0.013533236

fc.2.bias f4 [32]
0	0xbe83ffe7	-0.25781175
1	0x413d1f39	11.820123
2	0x4165506f	14.332137
3	0x3f58651f	0.845293
4	0xbe92e2e5	-0.28688732
5	0xbf9344e1	-1.1505395
6	0x3f38a118	0.7212081
7	0xbe606a9b	-0.21915667
8	0x3fd83426	1.6890914
9	0x4060327d	3.5030816
10	0x41431536	12.192678
11	0xbd64826a	-0.055788435
12	0xbb9550ff	-0.0045567746
13	0xbea46fc7	-0.3211653
14	0x3f40eaef	0.7535848
15	0xbe1c9164	-0.15289837
16	0x3ed95580	0.42448044
17	0x3e62f0cd	0.2216217
18	0xbe06afaf	-0.13152955
19	0x3f220677	0.63291115
20	0xbeaf4f2c	-0.3424009
21	0x3f05c587	0.5225453
22	0xbe3209de	-0.17386577
23	0x4150db62	13.05356
24	0x3f9b35ba	1.2125771
25	0xbea1c6f8	-0.31597114
26	0x3ff26103	1.8935856
27	0x3e9405f6	0.28910798
28	0xbb61b32f	-0.0034439077
29	0xbc1b1ed6	-0.009467801
30	0x400fc470	2.2463646
31	0x3e8163a8	0.25271344

fc.4.weight f4 [2, 32]
0	0xbf733567	-0.9500336
1	0x40262aba	2.5963578
2	0x402f4768	2.7387333
3	0x40017a55	2.0230916
4	0xbcde9e75	-0.027175168
5	0x40016802	2.0219731
6	0x3f48029b	0.78128976
7	0x3b2ded4b	0.0026539143
8	0xbf187b62	-0.5956327
9	0x4009ce63	2.1532218
10	0x3fd6660d	1.6749893
11	0x3fa65d9a	1.2997315
12	0xbe0e9285	-0.1392308
13	0x3f037f1b	0.5136582
14	0x3e801720	0.25017643
15	0x3c48aef8	0.012248747
16	0x3f53a961	0.82680327
17	0x3f65c91a	0.8975998
18	0xbcae8612	-0.021304164
19	0x3ffcaea8	1.9740801
20	0x3d505a02	0.05086709
21	0x3e7140f1	0.2355993
22	0x3b19e66a	0.0023483285
23	0x3ffa7b54	1.9568887
24	0xc05b0569	-3.4222052
25	0x3bdd1d90	0.006747909
26	0x3f05b51e	0.5222949
27	0x40381e50	2.8768501
28	0xbdbb2a46	-0.091389224
29	0xbe57658a	-0.21034828
30	0xc05c9bee	-3.4470172
31	0xc00948c6	-2.1450667
32	0x3f93816b	1.152387
33	0x3feb2bf1	1.8372785
34	0x4013444d	2.3010437
35	0x3cd0c4d7	0.025484486
36	0xbc6f6e9c	-0.014613774
37	0x3f2b8e11	0.6701365
38	0x3fb39d20	1.4032326
39	0x3cfa9e77	0.03059314
40	0x3f56ae88	0.83860064
41	0xbe29b22b	-0.16571872
42	0x3fc623d4	1.5479684
43	0xbf839681	-1.0280305
44	0x3e10257b	0.14076798
45	0x3e9c8137	0.30567333
46	0x3e2fa5cd	0.17153092
47	0x3b020f74	0.0019845637
48	0x3e955ae2	0.291709
49	0x3d256d0e	0.040387206
50	0xbd95cf39	-0.07314915
51	0x3e94d450	0.29068232
52	0xbdb03dcd	-0.086055376
53	0x3e26b6f1	0.16280724
54	0x3de88063	0.11352613
55	0x400fa1ed	2.2442582
56	0x4000df4f	2.0136297
57	0xbd82695e	-0.063677534
58	0xbf471d02	-0.7777864
59	0xbfc084fe	-1.5040586
60	0x3b6f4946	0.003651218
61	0x3d966a0d	0.07344446
62	0x3fb05fbd	1.3779217
63	0x3f5b7ee5	0.857405

fc.4.bias f4 [2]
0	0x41d48aa0	26.567688
1	0x41627630	14.153854
